model/model.pth (torch, 16787 bytes, 4 tensors)

linear1.weight f4 [256, 11]
00000000: bb50 933e 9774 873e 72b1 1dbf cb7c a43e
00000010: 8831 853e 8c89 d63c 52b4 6cbd 7a97 87bd
00000020: f825 8fbe 1ad4 1b3e 3115 f13d 90a2 043e
00000030: 3de6 d73d ce7a d53e cea4 cf3d fa40 7f3d
00000040: 5f14 b73c 3164 053e badc 4d3e cfdb a33e
00000050: 1179 643e 1978 353d a8c6 8e3e 326a d1be
00000060: ff77 f13d 3402 2abe 3483 a93d d273 8abe
00000070: 71d3 c53e 9969 a43e aa46 d8be 9e17 a0be
00000080: 8128 d7be 21ee 0c3f 93db 74bd d94c f2be
00000090: fde5 673e b279 833e fae6 31be 34df b3be
000000a0: 28a4 d8be 5b8e bdbe 9d40 083e f8f4 8e3e
000000b0: b728 613e 5305 9a3e e010 423e 79ab eebc
000000c0: 05c9 19be 3c56 5dbe c081 a23c 26a2 793e
000000d0: c056 e03e f69f cb3e 8d9b e83d 1427 ba3e
000000e0: 6322 473e 1cbf cebd 99c1 06be d392 0cbe
000000f0: 0679 dcbd c76f 433d 6f1e 423e a35d 873e
00000100: fe0e 733e 0f80 ba3d ad27 99bc 5e51 263f
00000110: 5f57 e4be 16c1 363e 3786 81bd 9193 c83e
00000120: c9dc 8fbe 4b83 4bbd 1bd6 68be db4f 98be
00000130: 02e2 3e3e 1f93 623e 39d4 eb3d 32f9 1dbf
00000140: b25a e63d 26e6 493d fa57 85be 147a a5be
00000150: 14a4 adbe c590 843d 1570 3dbb 3310 583e
00000160: 604e d23b 5863 a43e 3c52 2cbe 49c9 b63e
00000170: 96b5 14be 9d82 88be cec5 063f 8e6a 88bc
00000180: 8dd4 09bf 1cee 44bf c837 d33d aa75 f43e
00000190: 7f96 b8be ebe3 013f 8c51 683c ffad 723e
000001a0: 4297 643e 9ac0 c8bd 5de0 2b3e d491 8a3e
000001b0: f0aa 683c 6b16 bc3e 9dce 0bbd b216 153f
000001c0: b53c 98be 047f 003e 11d7 ab3e f4d1 b23e
000001d0: 9656 0e3d 5a2f 193e b7ca aabe 481d 1fbe
000001e0: 69d1 7bbe f48d 193e 2b2d ae3c fd71 50be
000001f0: 9651 9cbd d46d ddbe e543 953e 4440 d53e
00000200: fcee 423e e07a f93e 0e9c 30be 1a51 9fbe
00000210: a0a9 17be 1221 69be a81d 7bbd 24c5 f4bd
00000220: b855 0f3d 1d96 89be 9024 1ebd 2865 553d
00000230: 0aa5 bebd d0aa 443d 002a 38bc ecd9 72bd
00000240: 5e3a cdbe d64b 01bc 90ee 033d f7e9 d3be
00000250: 448d 1bbe 597b f03e 42ba a73e 154d dabe
00000260: 49cd a0be 41b5 67be 55b4 b5bc d751 c43d
00000270: 03d0 02bf 6d8d 94be c903 613e 087a c93e
00000280: 6e80 1fbe 2b19 ca3e 42c1 83be 6c41 46be
00000290: 217b 84bc e97e 4d3d 04af 00bf 14a4 243f
000002a0: 3197 23be f3cc 1d3e ab99 5b3d 6c62 48bd
000002b0: 8f37 453e 64d8 fe3d 3158 8ebe 9cb4 d73d
000002c0: 9be7 013e 4ef3 f7be 7678 943e 9550 b6bd
000002d0: 3e68 333e f352 bd3e efab 4bbe f7d1 7e3e
000002e0: 06ee 2dbe ed30 b7be e8a4 b93e 1574 0cbe
000002f0: 4b27 0ebe 4309 213e fee0 33be 9dc2 4f3e
00000300: 06dc fcbe 709d 123e bf8c c13e 2689 5abe
00000310: 09e4 03bf afd1 cabd a14c e3be f5ab 00bf
00000320: 72f0 0a3e df85 273d a573 debd c070 ca3d
00000330: 6c93 8ebd 1964 3c3e da97 723e d6b1 0abe
00000340: 8f6a f13d 5449 dfbc d13c efbe 2098 cfbd
00000350: eefd d5be 222c 853e dcdd f23e 0058 5e3c
00000360: 9cbb 6a3e 3b01 8cbe c11d 08bf b98d 6fbd
00000370: f59e e7be 8cfe 503e 466e 103e 0ac9 d93e
00000380: 3e52 cfbe b076 c43e b678 7f3e 8bd9 1c3e
00000390: c8c5 22bf 6bb7 06be 6303 aebc 9077 6dbe
000003a0: 3ff2 553e 1dcb 9b3d fbb1 4a3d 7be9 cebd
000003b0: 6acc 89bc 30ec c9bd 81b0 b4bd f696 6d3d
000003c0: 0800 ddbe 969c bcbd bab3 b13e e8a4 3dbe
000003d0: c6cf 5abb 4ea0 7ebe 3498 c1be 2349 ea3e
000003e0: 75d8 223e 1ebc 113f cbbf 203f 6d8c 1fbe
000003f0: 2379 063e fd23 b3be eea9 c0bd 09a3 b03e
0.2877253 0.26456138 -0.61598885 0.3212646 0.26014352 0.026188634 -0.057789154 -0.06620689
-0.27958655 0.15217629 0.1177162 0.12952638 0.10541961 0.41695255 0.10138856 0.062317826
0.02234858 0.13026501 0.20103732 0.32003638 0.22311808 0.044303987 0.27885938 -0.40901333
0.117904656 -0.16602403 0.08276978 -0.2704149 0.3863788 0.32111815 -0.42241412 -0.31268018
-0.4202309 0.55050856 -0.059779715 -0.47324255 0.22646327 0.25678784 -0.17373267 -0.35131228
-0.4231274 -0.3702267 0.13305898 0.2792127 0.21988188 0.30082187 0.1895175 -0.029134499
-0.15018089 -0.21614927 0.01983726 0.24378261 0.43816185 0.39770478 0.11357794 0.3635794
0.19446711 -0.10095045 -0.13159789 -0.13727884 -0.10765271 0.04771402 0.18956922 0.26438627
0.23736188 0.091064565 -0.018695677 0.64967906 -0.4459791 0.17847094 -0.063244276 0.39175084
-0.28098133 -0.049685758 -0.22737925 -0.29748425 0.18640903 0.22126435 0.11515088 -0.61708367
0.112477675 0.049291752 -0.26043683 -0.323197 -0.33914244 0.06472925 -0.0028905917 0.2109993
0.0064180344 0.32107043 -0.16828245 0.35700443 -0.14522395 -0.2666215 0.52645576 -0.016652372
-0.5383995 -0.76925826 0.10313374 0.4774602 -0.3605232 0.507384 0.014179599 0.23699187
0.22323325 -0.09802361 0.16784807 0.27064383 0.014200911 0.36735854 -0.03413259 0.58237755
-0.29733816 0.12548453 0.3356252 0.34925807 0.034750544 0.1495947 -0.33357784 -0.15538514
-0.24591602 0.14995557 0.021261772 -0.20355983 -0.07632749 -0.43247855 0.29153362 0.41650593
0.19036478 0.4872656 -0.1724703 -0.31116563 -0.148108 -0.22766522 -0.06130758 -0.11951664
0.034993857 -0.2687234 -0.038609087 0.052098423 -0.093088225 0.048014462 -0.011240482 -0.059289858
-0.40083593 -0.007891616 0.032209933 -0.4138944 -0.15190607 0.46969107 0.3275929 -0.42636934
-0.3140662 -0.22627737 -0.022180716 0.09585922 -0.5109865 -0.2901415 0.219741 0.39350915
-0.15576336 0.39472327 -0.25733382 -0.19360894 -0.016171994 0.05016986 -0.5026705 0.64312863
-0.15975644 0.15410213 0.053613346 -0.048921987 0.19259475 0.12443617 -0.2780166 0.105324954
0.12686007 -0.48427814 0.28998154 -0.089020886 0.17520234 0.36977348 -0.19889806 0.24884783
-0.1698533 -0.35779515 0.36258626 -0.13716157 -0.13882177 0.1572619 -0.17566296 0.20289083
-0.49386615 0.1431787 0.37802693 -0.2134138 -0.5151983 -0.09903275 -0.443944 -0.50262386
0.13568285 0.040899154 -0.10861901 0.098847866 -0.06961712 0.18397559 0.2369074 -0.13544402
0.117879026 -0.027256645 -0.46726087 -0.101364374 -0.41795295 0.26010233 0.4743489 0.0135707855
0.2292313 -0.2734469 -0.531704 -0.058484767 -0.45238462 0.20409602 0.14104566 0.42536193
-0.40492433 0.383718 0.24948391 0.15317361 -0.6358304 -0.13155906 -0.02124185 -0.2319014
0.20893191 0.076071 0.04948614 -0.101031266 -0.016821105 -0.09859502 -0.08822728 0.058005296
-0.43164086 -0.09209554 0.34707433 -0.18519938 -0.0033388003 -0.24865839 -0.37811434 0.45758924
0.15902884 0.5692767 0.6279265 -0.15580912 0.13132147 -0.34988394 -0.094074115 0.34499386

linear1.bias f4 [256]
00000000: 7110 4ebe 7b95 c4be 6c94 0cbe 812a d53d
00000010: 2cf1 77be 1694 2cbe 686b c7bd 4f82 c53e
00000020: 0a0c f63d f38a 78be a2b9 4abd 33aa f4bd
00000030: fba1 8bbe ec2a 42be 1555 19be 8f80 df3c
00000040: a60b 2cbe 8937 713e c84f d9be f268 c43d
00000050: a812 e23e 0230 28be aa79 9abe 85ff 913c
00000060: 1a21 4dbe 4f3f c73e 7f68 233d 01c3 273e
00000070: 0175 58be fad7 a0be 61ac 54be 9eac a9bd
00000080: 1c65 bdbd 6cdb 3f3e 13bb a03e be02 a7be
00000090: 6149 713d 46ac 50be 4b08 6dbd 6929 11be
000000a0: 4ede 8cbe 9816 8abe acab 0fbe 7df2 6fbe
000000b0: 7337 51bd 0891 2bbd 9e29 383e bf15 94bd
000000c0: 2be6 68bd 1ffe 78be 8876 1abe 417e 3fbe
000000d0: 4205 193d 8822 c8bd 54ca 1dbe b4a7 01be
000000e0: 8152 40bd 398e e93d 7111 53be 8cbf 683e
000000f0: 5977 b3be 9367 4cbe e617 6bbe 85f4 893d
00000100: e61f 93bd 9259 153e 0d23 183e 0742 49be
00000110: 16d0 5ebd 9c03 1f3d c15b b13d bc44 6dbe
00000120: 52ed 83be ac6a e4bd e4b0 15bd ef6a 2f3d
00000130: 5efe 2f3e cdbc ca3e fa6d b1be b012 acbb
00000140: c98a 4fbd 8c4c 60be 8215 41be 39f6 d3bd
00000150: 9ae3 a63d 1760 1ebe b9b6 04bd db5c 2b3c
00000160: 789b 35be 9c80 d13e 4730 aabd 0302 98be
00000170: c84e 02be 78d8 043e eb92 8abe c838 75be
00000180: 8e4c 8ebc a755 27be 3c97 a9be 271d b3bd
00000190: 8f30 75be f1fd 86bd 5780 0f3f b6b7 9fbd
000001a0: 3a5e b8bd df5c 9dbe 3389 91bc 13fa cebd
000001b0: 17f2 783e 040f 8ebd 3455 46be dc7c 52be
000001c0: 9a79 fe3e e4b2 7abe c234 3d3f f19e 81be
000001d0: d64c 4cbd 837e 5ebe ab27 52bd f734 b5be
000001e0: b21f c7be 1a18 afbe 8c54 be3e cb8e 143d
000001f0: 1eed 12bc 5c62 46be c001 c13c 5f76 70bd
00000200: 1a8e 7e3d 419b 9bbe ebb1 a7be 2cbf 27bb
00000210: 6a25 e4bd d1c1 76bd 4c1d 563e 1734 61be
00000220: d3a6 d13e 2ab5 0a3f cbea a6bd 8a68 2dbe
00000230: 0886 08be 13c3 913d 823f 90be 2312 81be
00000240: d490 4cbe d5ff 85bc e059 42be 052c 9fbd
00000250: 31bc dbbe 4d2f 8dbd db7c 073f eed8 40be
00000260: c0e7 3dbd 0329 88bd 2faf 1dbe 3f40 1a3d
00000270: ee59 aa3d bd36 8f3c e210 87bd bd2a 58be
00000280: c0e8 50bc c803 34be 8139 803d 10df d63d
00000290: ea60 273f 422e b0bc 6597 6bbc 6e4a a5bd
000002a0: b918 94be 4e14 3b3e a831 7f3e 0f04 26be
000002b0: d382 94bd f409 a3bd 5633 153f 18d8 b8bd
000002c0: 6c27 6f3d ad8f d6be 0365 ca3c 3139 01be
000002d0: 6c10 ebbd d6fa 583e 09ee 8fbe 717e cabd
000002e0: 0277 85be d1c3 aa3c 0239 46be ca7a a0be
000002f0: 503d 7cbe 2924 413d 2c66 81be efcd cfbe
00000300: c019 74be 6fb3 3e3e 28c3 ad3d 16e9 52be
00000310: 5f43 12be dc06 3dbd 7bca 2dbe b076 12bd
00000320: 4df7 bdbe 9fed 23bc 1291 b53d a9c4 d6be
00000330: 2d78 083e c2f5 ccbd f716 58be bb85 94bc
00000340: e911 35be bd7f a4be 8561 2d3d fab0 3abb
00000350: 051f 92be a125 5abe 2935 803d 35f2 88be
00000360: 4275 e73d b15c 7abd 8cf2 fd3d b281 39be
00000370: 8866 6b3d 01d9 93be 5650 d03c 876c 92be
00000380: 4174 853e f64d c9be 945f 5abe 7148 4fbd
00000390: 14c2 2a3f cf57 463e d5cc 2a3d 3c81 a73d
000003a0: 3a53 16be b3dd 953e 0256 6b3d 41bf c73d
000003b0: 931c 09bd e8cf 84be ba3e 54be 5a8d 5cbd
000003c0: f5d0 66be 06a6 a2be 6917 873e b622 85be
000003d0: 84b3 903e dbd0 90be 49f0 fcbd 77f5 56be
000003e0: 04d1 a4be 81de 54bd 3051 7fbe aa79 1fbe
000003f0: 6848 9a3d cf90 68be bc22 5a3e 6051 8fbd
-0.2012346 -0.38395295 -0.13728493 0.104084976 -0.24213094 -0.16853365 -0.09737283 0.3857598
0.12014015 -0.24271755 -0.04949344 -0.119465254 -0.2727202 -0.18961686 -0.14973862 0.027282981
-0.16801319 0.23556341 -0.4244368 0.09590329 0.4415486 -0.16424564 -0.30170947 0.017822037
-0.20032158 0.38915488 0.039894577 0.16382982 -0.21138383 -0.31414777 -0.20768882 -0.08284877
-0.09247801 0.18736047 0.31392726 -0.3261928 0.05890787 -0.20378217 -0.057869237 -0.14175953
-0.27513355 -0.26970363 -0.14030331 -0.23432346 -0.05107827 -0.04188636 0.17984626 -0.0723071
-0.05686013 -0.2431569 -0.15084279 -0.18700506 0.03735853 -0.09772211 -0.15409213 -0.1266163
-0.04695368 0.1140408 -0.20612122 0.2272932 -0.35051993 -0.19961385 -0.22958335 0.067360915
-0.071838185 0.1458495 0.14857121 -0.19654094 -0.054397665 0.0388218 0.08660079 -0.23170751
-0.25767 -0.111531585 -0.03654565 0.04282659 0.17186877 0.3959717 -0.34654218 -0.005251251
-0.050669465 -0.219042 -0.18855861 -0.103496976 0.0814888 -0.15466343 -0.03240082 0.01045915
-0.17735088 0.40918434 -0.083099894 -0.29689035 -0.12725365 0.12973201 -0.27065215 -0.23947442
-0.017370488 -0.16341268 -0.33123195 -0.08745795 -0.23944305 -0.06591404 0.56055206 -0.07798712
-0.09002347 -0.30734918 -0.017765617 -0.101062916 0.243111 -0.06936458 -0.1936844 -0.20555443
0.4970215 -0.24482304 0.7390863 -0.25316575 -0.049877964 -0.21727948 -0.05130736 -0.3539197
-0.3889137 -0.34198076 0.3717388 0.03626899 -0.008967666 -0.19373459 0.023560405 -0.058706637
0.062147237 -0.30391887 -0.32752928 -0.0025596125 -0.11139949 -0.06024343 0.20909613 -0.21992527
0.4094759 0.54182684 -0.08150252 -0.1693441 -0.13332379 0.071172856 -0.28173453 -0.2520915
-0.19977123 -0.016357342 -0.18979597 -0.07772068 -0.42917016 -0.068937875 0.5292489 -0.18832752
-0.046363592 -0.06648447 -0.15398858 0.037658926 0.08317934 0.017482156 -0.06595017 -0.21110053
-0.012750804 -0.17579567 0.06260968 0.104917645 0.65382254 -0.021506432 -0.014379357 -0.08070837
-0.28925112 0.18269464 0.24921286 -0.16212486 -0.07251515 -0.07960883 0.5828146 -0.090255916
0.058387205 -0.4190649 0.02470637 -0.12619473 -0.114777416 0.21189436 -0.28111294 -0.09887398
-0.26067358 0.020845326 -0.19357684 -0.3134368 -0.24632764 0.047153626 -0.25273263 -0.40586802
-0.23837948 0.18623136 0.08484489 -0.20596728 -0.14283513 -0.04614912 -0.16971771 -0.03575772
-0.37102738 -0.010005384 0.088655606 -0.41946915 0.13327093 -0.10007812 -0.2110251 -0.018130174
-0.17682613 -0.32128707 0.04232933 -0.0028486834 -0.2853929 -0.21303417 0.062601395 -0.2674729
0.11301662 -0.061123554 0.12399778 -0.18115881 0.05747083 -0.28876498 0.025428932 -0.28598425
0.26065257 -0.39317292 -0.21325523 -0.050606195 0.6670239 0.19369434 0.04169925 0.081789464
-0.14680186 0.29270706 0.05745507 0.09753276 -0.033474516 -0.2593987 -0.20727053 -0.05384574
-0.22540648 -0.3176729 0.26385048 -0.26003045 0.2826196 -0.28284344 -0.12350518 -0.20992075
-0.32190716 -0.05197001 -0.24933314 -0.15573755 0.07533342 -0.2271149 0.21302313 -0.06997943

linear2.weight f4 [3, 256]
00000000: f2c4 903c 7e7a 04bd 96c2 94be 74d1 22be
00000010: 07f2 00be a985 81bd 4b0a f4bd 970d 553d
00000020: bbbc f43e 3e9b 06be 16fa 88bb d0da c8be
00000030: d8e9 68bd ea22 eb3c 96d7 3dbe 625b 663d
00000040: a940 73be 0fc0 203e 3e2e 43bd cec2 0cbf
00000050: 53ca e93e 1862 573c 5e0a 2ebf 30f3 503d
00000060: ec02 0abe 6047 933e 6aff a13e 1f78 533d
00000070: aaab bfbe 352a 91bd 7e8f 97be 8e54 1cbe
00000080: efc4 b2bc 7ea0 9a3e d144 353e dd45 febd
00000090: a2e2 e7be 3dd8 8fbe 21a5 02bf 3d33 ecbd
000000a0: b7d9 38be f0dc 3dbe d0fa b5be 3d00 f4be
000000b0: 620b 13be ecf7 44bd ac15 e13d c21e 9eba
000000c0: 1612 52bd 1444 0dbe dd4a efbd 638d 4ebe
000000d0: c0db d1bd 1bc0 5fbd f2a3 21bf be3d a0bc
000000e0: 9a59 ce3d ad44 913b 2f18 8ebd 732b 6f3e
000000f0: cb66 efbc 68c4 c8bc c710 0abe e18b aabd
00000100: ff93 72bc 4103 cd3e 83d4 ba3e ca4b 32bd
00000110: 2ac0 33be dce1 a23b ecdb 3d3e 9d3b 1dbd
00000120: 95b0 dcbc cbe6 c63e 9a4c cfbe 0bf1 90be
00000130: d7cd 873e ab6a a73e 5dc1 03be 63db b2bd
00000140: df3e 2ebe a889 99be 49ff 89bd 24ac e83e
00000150: f565 b43d 8458 9e3c 9b01 8d3d d74f f83d
00000160: b41a bcbd 222a 963e 4588 7e3e 842d 22bd
00000170: 19b9 16bc ab20 a63e a6d2 15bd 0219 893c
00000180: 8fa5 d83e 99af 0c3c 95df f03c fec5 b0bc
00000190: 8d40 e6bc da79 113f 10a2 1d3e 73b0 acbe
000001a0: 8ae1 913b 170a 57be ae87 4cbd 4d27 c83e
000001b0: 291f 3b3e e50e 3dbf 747c 16bb 5f98 1fbe
000001c0: 00c4 f53e 7267 5fbe e726 eb3e 397c 6fbd
000001d0: 03a1 163e 992f 2dbe b09f bcbe efe2 4bbe
000001e0: 4e0e 86bc df13 e7bc b6a6 293e 1a87 29be
000001f0: 585d 583d e1ca cfbb 5987 283f b212 8fbe
00000200: cb70 f23d 710f 56bd 5d00 fa3d fe50 13bc
00000210: add2 b9be fcf9 5b3b 4c5a 0a3f 6c5a 44bc
00000220: 5c7c cf3e 6e70 8b3e 207e fb3c f9a1 a1be
00000230: 7161 0fbf bc9b efbe 6822 6bbc 6abf eebd
00000240: 3a83 dcbd b321 82bd caca 333c 55ba 51b8
00000250: 16c0 efbc ce6d 9c3d ef20 4e3e bb69 45be
00000260: 7750 29be 9f6e 903e b83c 15be d57a 933e
00000270: 5f05 04bf 72b5 1dbb c3b6 993c 9a80 f53c
00000280: bb00 edbb 810b 1dbe 7538 c33c 0770 a3be
00000290: b8e5 b73e 9483 fe3c 4b7d ebbb eb17 3cbf
000002a0: 4803 15bb c12f 733e f987 bdbd 16e5 09bf
000002b0: 16b4 b4be 09ab e0be 3235 f53e 74a7 f9bd
000002c0: 3921 4f3d ae5e 5fbd 9fc3 813e 9f6c 7abe
000002d0: 6e6e 0fbe d842 c93d 6842 f4bd c263 553e
000002e0: 1670 f33b 6697 f9bc 85a2 18bc ce37 18be
000002f0: 4648 40be 91b3 ddbe 3be9 6ebe dea6 40be
00000300: d45b c63b 0935 523e affb bd3e fe7f 05bd
00000310: c479 623e 337c 3cbd f7bd 0dbe 6b56 29be
00000320: 9c9f 52be c285 b83e 6183 8a3d 39ce 0cbe
00000330: f7e9 103d b201 1a3e 9c3f 2dbe 9f7c 113e
00000340: 3151 2abe 2493 5ebd 4ce2 e53e 628b 2e3e
00000350: 44c8 cbbd d7e9 96bd 3c7c e2be ac39 87be
00000360: c130 c63d 0d0e 4fbe a9ae babe b597 0dbb
00000370: 9284 98be 0b0a 443a c90e ab3e 6a75 dabd
00000380: e4d0 463e 0e38 9dbd 9c51 01be d620 8bbd
00000390: ba95 fe3e 5e1e 363e af7a a8bc a66c 8b3c
000003a0: 6e81 dabd 5a41 d93e 6c7e 203e 03b6 8cbe
000003b0: c612 7cbe c6a4 56bd 61d3 0f3c 4b31 5bbe
000003c0: 4d83 80be b2fd a9be 7089 793e fd2d cebd
000003d0: 460b 363e 9690 6bbe 72d0 113d ae50 fcbc
000003e0: f562 9ebd 64ce b1be a90f 4abe 801b 4fbe
000003f0: 9287 b53e 5066 98bd 3ae6 b53e 63a6 60bd
0.017672036 -0.03234338 -0.29054707 -0.15900213 -0.12592326 -0.06324322 -0.11916026 0.052014913
0.4780024 -0.13145158 -0.004180203 -0.3922944 -0.056863636 0.028703172 -0.18539271 0.056239493
-0.23755135 0.15698265 -0.04765152 -0.5498475 0.45662174 0.013145946 -0.6798457 0.05101317
-0.13477677 0.28765392 0.31640178 0.05162823 -0.37435657 -0.070881285 -0.29601663 -0.1526663
-0.02182242 0.3020057 0.17702033 -0.12415669 -0.45290095 -0.28094664 -0.51033217 -0.115332104
-0.18051802 -0.18541312 -0.35542917 -0.47656432 -0.14359811 -0.048088 0.10990462 -0.001206361
-0.05128678 -0.13795501 -0.11684201 -0.20171122 -0.10246992 -0.054626565 -0.63140786 -0.019560691
0.10075684 0.0044332356 -0.069382064 0.23356418 -0.02922382 -0.024507716 -0.13482963 -0.08327461
-0.014805793 0.40041545 0.3649026 -0.04352931 -0.17553774 0.004970772 0.18540925 -0.03838693
-0.02693967 0.38847956 -0.4048813 -0.283089 0.2652423 0.3269857 -0.12866731 -0.08733251
-0.17016171 -0.29987836 -0.06738145 0.45443833 0.08808509 0.019329317 0.06885072 0.12124603
-0.09184781 0.2932902 0.2485667 -0.03959419 -0.009199404 0.324468 -0.036577843 0.016735557
0.4231381 0.008586788 0.029403487 -0.021578785 -0.028106952 0.56826556 0.15393853 -0.3372837
0.004451935 -0.20999943 -0.04993408 0.39092484 0.18273605 -0.7385085 -0.0022962363 -0.15585469
0.480011 -0.21816805 0.45928118 -0.058468077 0.14709859 -0.16912688 -0.36840582 -0.19910787
-0.016364243 -0.028207717 0.16567501 -0.16555443 0.052823395 -0.0063413237 0.65831524 -0.2794395
0.1183792 -0.05226082 0.122071005 -0.008991478 -0.36293545 0.003356575 0.5404403 -0.011984449
0.40524566 0.27234215 0.03069979 -0.31568888 -0.5600806 -0.46798503 -0.014351465 -0.11657603
-0.10767217 -0.06354084 0.010973642 -5.000302e-05 -0.029266398 0.07638131 0.2012975 -0.19278614
-0.16534601 0.28209397 -0.14573944 0.2880465 -0.51570696 -0.0024064449 0.018763905 0.029968549
-0.007232753 -0.1533642 0.023830632 -0.31921408 0.3591745 0.0310686 -0.007186567 -0.73473996
-0.0022737551 0.23748685 -0.0925445 -0.5386518 -0.35293645 -0.4388049 0.47892147 -0.12190142
0.050568793 -0.054533653 0.2534456 -0.24455498 -0.1400697 0.098272026 -0.119267285 0.20838836
0.007429133 -0.0304677 -0.009316091 -0.14865038 -0.1877757 -0.4330106 -0.23331158 -0.18813655
0.0060534272 0.20528044 0.37106082 -0.032592766 0.22116762 -0.046016883 -0.13841997 -0.16536872
-0.20568699 0.3603955 0.0676334 -0.13750543 0.035379376 0.15039709 -0.16918796 0.14207695
-0.16632535 -0.054339543 0.44899213 0.17045358 -0.09950307 -0.0736882 -0.44235408 -0.26411188
0.09677268 -0.20220204 -0.3646138 -0.0021605317 -0.29788643 0.0007478303 0.33409718 -0.10666926
0.19415623 -0.07676707 -0.12628788 -0.06793372 0.49723607 0.17785022 -0.020566313 0.017019581
-0.10669218 0.42432672 0.15673226 -0.27482614 -0.24616536 -0.052403234 0.008778424 -0.21405523
-0.25100175 -0.33201367 0.24368834 -0.10067365 0.17777738 -0.23004374 0.03559918 -0.03080019
-0.07733718 -0.34727776 -0.19732536 -0.20225334 0.35454994 -0.074413896 0.3552721 -0.05484618

linear2.bias f4 [3]
00000000: 2cd6 923e 6d7f 143e 608f 1f3e
0.28679025 0.14501734 0.15582037
