model/model.pth (torch, 16787 bytes, 4 tensors)

linear1.weight f4 [256, 11]
0	0xbdc0e032	-0.09417762
1	0x3e43d806	0.19125375
2	0x3d1034f8	0.035206765
3	0xbe30829a	-0.1723732
4	0xbe3225df	-0.17397259
5	0xbdeaaa58	-0.11458272
6	0xbe07f2c2	-0.13276199
7	0x3e5f3c32	0.21800306
8	0xbca33370	-0.019921988
9	0xbc8bbf6f	-0.017059056
10	0x3c7512c0	0.014958084
11	0xbd05fe60	-0.032713294
12	0x3f004529	0.5010553
13	0x3e864db2	0.26231152
14	0xbdd15dc5	-0.10222963
15	0xbe8e4806	-0.27789325
16	0xbebae641	-0.36503795
17	0xbecb43ec	-0.39700258
18	0xbe22b48b	-0.15889184
19	0xbeb07833	-0.34466705
20	0xbd66a098	-0.056305498
21	0x3e161ead	0.1466014
22	0xbe3f7fb2	-0.18701056
23	0x3e5be99e	0.21475837
24	0x3b878100	0.004135251
25	0xbe996100	-0.29956818
26	0xbdca5676	-0.09879772
27	0x3e293585	0.16524322
28	0xbe1de721	-0.154202
29	0x3e38d560	0.18050146
30	0xbde58b34	-0.112081915
31	0xbe862a69	-0.2620423
32	0xbe9bd5be	-0.3043651
33	0x3e86a71d	0.26299372
34	0x3e9f3305	0.31093612
35	0xbe96fae8	-0.294883
36	0xbe8d9af5	-0.27657285
37	0xbdc6ac34	-0.09700814
38	0x3e002683	0.12514691
39	0xbd3da832	-0.04630298
40	0x3db114ca	0.08646543
41	0x3e8f9eb1	0.2805076
42	0xbdd1f9f4	-0.10252753
43	0xbe0df8d3	-0.1386445
44	0xbdb8c0bc	-0.09021136
45	0xbea9aef6	-0.33141297
46	0x3f0edbab	0.55803937
47	0xbe2d6f98	-0.16937101
48	0x3ea60094	0.32422316
49	0x3d5634d4	0.052296475
50	0xbda3993d	-0.07988212
51	0xbe191604	-0.14949805
52	0x3e099eed	0.13439532
53	0x3ce3d96f	0.027813641
54	0x3e898ecf	0.26866767
55	0x3ea1ceb3	0.3160301
56	0xbf09f1ab	-0.5388438
57	0x3ebf4ebe	0.37364763
58	0x3e6c77e9	0.23092617
59	0x3d6f20cf	0.058380898
60	0xbd2dc5ce	-0.04242497
61	0xbde02061	-0.10943676
62	0xbe0c2c2d	-0.13688727
63	0x3e1945cf	0.14968036
64	0xbd7149fc	-0.058908448
65	0xbe700c89	-0.23442282
66	0x3df81246	0.121128604
67	0xbe54feaf	-0.20800279
68	0xbd2a11d5	-0.041520912
69	0xbe8bb4b1	-0.27286294
70	0x3d96d436	0.07364695
71	0xbcc0d4ac	-0.02353891
72	0x3de03939	0.10948414
73	0xbdc548be	-0.09633015
74	0xbdbf5da7	-0.09344035
75	0xbe456ee2	-0.1928058
76	0xbe8dfc5e	-0.27731603
77	0xbc926603	-0.017870909
78	0xbe39970c	-0.18124026
79	0x3d5937e7	0.05303183
80	0x3da548f5	0.08070556
81	0x3ec50dc5	0.38487068
82	0xbe901835	-0.28143468
83	0xbe33a875	-0.1754473
84	0xbf09933f	-0.53740305
85	0xbebc5de2	-0.36790377
86	0x3dbea411	0.09308637
87	0xbd9676e9	-0.07346899
88	0xbe34782e	-0.1762397
89	0xbebd5080	-0.3697548
90	0x3e80514c	0.25062025
91	0x3ce86b2c	0.028371416
92	0xbe1877ab	-0.148894
93	0xbe9e6ce6	-0.30942458
94	0xbeaae51b	-0.3337792
95	0xbe13f796	-0.14449915
96	0x3d5f6e99	0.054548834
97	0xbd4efecb	-0.05053596
98	0xbb029369	-0.001992429
99	0x3f0d974a	0.55308974
100	0xbf126474	-0.5718453
101	0xbcaeff4d	-0.021361971
102	0xbce59f4c	-0.02803006
103	0x3dd22eaf	0.102628104
104	0xbdc318e8	-0.09526235
105	0xbe58a239	-0.21155633
106	0xbead0e0e	-0.33799785
107	0xbc8e710c	-0.01738789
108	0xbe4bc8bd	-0.19900794
109	0xbc332a3a	-0.010935361
110	0xbf21cf43	-0.6320688
111	0x3ea1c3a1	0.31594566
112	0x3e9ba05d	0.30395785
113	0x3e24bc31	0.16087414
114	0x3e2209d1	0.15824057
115	0xbe0f91eb	-0.14020507
116	0x3e835ba4	0.25655854
117	0x3d9b4cff	0.07583045
118	0x3e64b2eb	0.22333877
119	0x3ecf7e01	0.4052582
120	0xbe3ebb3c	-0.18626112
121	0xbeada931	-0.33918145
122	0xbdbad800	-0.0912323
123	0xbe9e86fd	-0.30962363
124	0xbee26a33	-0.4422165
125	0xbe8fe50c	-0.28104436
126	0xbe8b5f99	-0.27221373
127	0xbe0bff18	-0.1367153
128	0xbd6bdd45	-0.057584066
129	0x3e69abbc	0.22819418
130	0x3d7f5803	0.062339794
131	0xbe6cbe5f	-0.23119496
132	0x3ed238d9	0.41058996
133	0x3d4e3e76	0.050352536
134	0x3e76119d	0.24030156
135	0xbc93950c	-0.018015407
136	0x3d0906b0	0.033453643
137	0x3ea4c5d8	0.32182193
138	0x3e6fc554	0.23415118
139	0xbd35bfb7	-0.044372287
140	0x3e893a73	0.26802406
141	0xbe3abedb	-0.18236868
142	0xbe3d2c9c	-0.18474048
143	0xbd6f4928	-0.058419377
144	0xbe37c776	-0.17947182
145	0x3d7afe99	0.06127796
146	0xbea049ca	-0.31306297
147	0xbe2057ec	-0.1565854
148	0xbe4dee36	-0.20110402
149	0xbdc12529	-0.09430916
150	0x3c2babaa	0.01047794
151	0x3e5ba563	0.21449809
152	0xbe810a08	-0.25202966
153	0x3e605748	0.21908295
154	0xbadc3558	-0.0016800566
155	0xbe8f689c	-0.28009498
156	0x3e029ea1	0.12755825
157	0x3e463e78	0.19359767
158	0xbd9176cc	-0.07102737
159	0x3c8a76e0	0.016902387
160	0x3e9ec8f9	0.31012705
161	0x3e997992	0.29975563
162	0x3e01c5aa	0.12673059
163	0xbd88d758	-0.066816986
164	0x3e44cc28	0.19218504
165	0x3eccb2ad	0.3998007
166	0x3dc75078	0.09732145
167	0xbe1b9a3f	-0.15195559
168	0x3e8f7806	0.28021258
169	0x3de16309	0.110052176
170	0xbea4105e	-0.32043737
171	0x3e4ce631	0.20009686
172	0xbebbdc8d	-0.36691704
173	0xbe9e5fcc	-0.30932462
174	0x3daf61d8	0.08563584
175	0xbe2fac1a	-0.17155495
176	0xbeebd84b	-0.46063456
177	0x3f007f17	0.50193924
178	0xbe431f74	-0.19054967
179	0xbdbb8ce9	-0.09157736
180	0xbe7d962b	-0.24764316
181	0xbde61592	-0.11234583
182	0x3e1e7742	0.15475181
183	0xbe293b9c	-0.16526645
184	0xbe2d2cb2	-0.16911581
185	0xbc104d12	-0.0088074375
186	0xbdf6878a	-0.12037571
187	0xbdb2b97a	-0.08726783
188	0xbec4ce4c	-0.38438642
189	0x3eb48bd7	0.3526294
190	0xbdb096fe	-0.086225495
191	0x3e1c54cf	0.15266727
192	0x3e55e095	0.20886452
193	0x3e0f9f09	0.14025511
194	0xbd90dc4b	-0.070732675
195	0xbea458ec	-0.32099092
196	0xbd7bdfab	-0.061492603
197	0x3e1196fa	0.14217749
198	0xbee969b8	-0.4558847
199	0x3e97aae1	0.29622558
200	0xbd4dc50d	-0.05023675
201	0x3c11fa17	0.008909724
202	0x3e60b31c	0.21943325
203	0x3c9b024d	0.018921996
204	0xbdd5368d	-0.10410795
205	0x3dd94c86	0.10610299
206	0x3e86c942	0.26325423
207	0xbe93f552	-0.28898102
208	0x3e36282a	0.17788759
209	0xbed5c385	-0.41750732
210	0x3dd0db0d	0.101980306
211	0x3d55089f	0.052010175
212	0xbcfcb683	-0.030848747
213	0xbd3f30e2	-0.046677478
214	0x3ea83990	0.32856417
215	0x3dbfaddc	0.09359333
216	0xbe3e98d2	-0.18612984
217	0xbe321e97	-0.17394482
218	0xbe66dea3	-0.22545867
219	0xbdd14a4e	-0.102192506
220	0x3de3f733	0.11131134
221	0xbdc54da4	-0.096339494
222	0xbe82e174	-0.25562632
223	0x3ee3124a	0.4434989
224	0xbe91e80d	-0.28497353
225	0xbd8ceca1	-0.06881071
226	0x3d2f3c2d	0.042781997
227	0xbe5a62fa	-0.21326819
228	0xbef9714f	-0.4871926
229	0x3c3bbdc1	0.011458815
230	0xbd0ff2b4	-0.03514357
231	0x3e8d5420	0.27603245
232	0x3ec7dba3	0.39034757
233	0xbe99638c	-0.2995876
234	0x3d180984	0.03711845
235	0x3e33bb1e	0.17551848
236	0xbe309152	-0.17242935
237	0x3e37e334	0.17957765
238	0xbdef19f2	-0.116748706
239	0xbe82011d	-0.25391474
240	0x3e1d193c	0.15341657
241	0xbdf5a7a1	-0.11994863
242	0x3e54027a	0.2070407
243	0xbe5ad973	-0.21372013
244	0x3ef9d359	0.48794058
245	0x3e4ae7a7	0.19814931
246	0x3ed33d5e	0.41257757
247	0x3d9d0b04	0.07668117
248	0x3dc9eb76	0.09859364
249	0xbdd4101f	-0.10354637
250	0xbe901e8d	-0.28148308
251	0xbc5e4b7d	-0.0135678025
252	0xbe3a880b	-0.18215959
253	0xbe3b0ee6	-0.18267402
254	0x3e830636	0.25590676
255	0x3e447260	0.19184256

linear1.bias f4 [256]
0	0xbea5df68	-0.32397008
1	0x3daa24a0	0.08307767
2	0xbebc5a32	-0.36787564
3	0xbe4f3ba9	-0.20237602
4	0xbe07b3eb	-0.13252227
5	0x3e1a88d5	0.1509126
6	0xbd17d780	-0.03707075
7	0x3e096a8a	0.13419548
8	0x3d6ef598	0.058339685
9	0x3cc93e63	0.024565881
10	0x3d6050a6	0.054764412
11	0xbdc7fd79	-0.09765143
12	0xbe9aba34	-0.30220187
13	0xbeb0e580	-0.34550095
14	0x3e6ed138	0.23321998
15	0x3e006589	0.12538733
16	0x3e73ffc5	0.23828037
17	0x3cbeabd3	0.023275292
18	0x3db06d33	0.08614578
19	0x3d9bbb61	0.07604099
20	0xbd384887	-0.044991042
21	0x3ae72a8d	0.0017636582
22	0xbe995959	-0.2995098
23	0xbe7d2f37	-0.24725042
24	0xbd43ec59	-0.04783282
25	0x36fd3a70	7.5467906e-06
26	0xbe95820c	-0.2920078
27	0xbe4a9ccd	-0.19786377
28	0xbbf182e1	-0.0073703383
29	0xbde74e22	-0.112941995
30	0x3e6b119b	0.22955935
31	0xbe774cdb	-0.24150412
32	0xbc820318	-0.015870616
33	0x3e8f2016	0.27954167
34	0x3ea6108a	0.32434493
35	0xbdacddb4	-0.08440724
36	0x3ea88810	0.32916307
37	0x3e674b8e	0.22587416
38	0x3db5036d	0.08838544
39	0xbe0002cc	-0.12501067
40	0xbe0f600a	-0.1400148
41	0x3e3934e9	0.1808659
42	0x3e8650aa	0.26233417
43	0xbe0c865b	-0.13723128
44	0x3ec50ed7	0.38487884
45	0xbeba8117	-0.36426613
46	0x3ef2d343	0.47426805
47	0x3e5981ac	0.21240872
48	0x3dd1a492	0.102364674
49	0xbe0d5d87	-0.13805209
50	0x3d8e029a	0.0693409
51	0x3ea3c29c	0.31984413
52	0xbdbf3e23	-0.093380235
53	0xbd774333	-0.06036682
54	0xbe5f7872	-0.2182329
55	0xbe20328e	-0.15644285
56	0xbe97b2fe	-0.29628748
57	0xbe6b8db5	-0.23003276
58	0xbeed3e94	-0.46336806
59	0xbe79b324	-0.24384743
60	0x3dd52f46	0.10409407
61	0x3e18860c	0.14894885
62	0x3d3558aa	0.04427401
63	0x3d9ebbec	0.07750687
64	0x3daf3539	0.08555073
65	0xbe069846	-0.13144025
66	0xbe7d5f6b	-0.2474343
67	0x3f0233ab	0.5086009
68	0x3de64268	0.11243135
69	0x3df89858	0.12138432
70	0x3dc408a3	0.0957196
71	0x3e30f45b	0.17280714
72	0xbde7bdd5	-0.113155045
73	0xbde1f219	-0.110325046
74	0x3ed836dc	0.42229354
75	0x3ed7b68d	0.42131463
76	0x3dacf738	0.08445591
77	0xbd7fbbf7	-0.062435117
78	0xbdcf5d00	-0.1012516
79	0x3dcd3d1d	0.10021422
80	0x3e55868c	0.20852107
81	0xbe6f0602	-0.23342136
82	0xbdcab0ea	-0.09897025
83	0x3d26186c	0.040550634
84	0xbe4ac348	-0.19801056
85	0x3e6c7d40	0.23094654
86	0x3e5ab63e	0.21358582
87	0xbe4123d1	-0.18861319
88	0x3dcc9c90	0.099907994
89	0xbe1e8561	-0.15480568
90	0x3e0052ac	0.12531537
91	0x3e526bb5	0.205489
92	0x3bfa78ca	0.0076437937
93	0xbe4c6b16	-0.19962725
94	0x3dca7446	0.09885459
95	0xbc058539	-0.008149439
96	0xbd981f02	-0.07427789
97	0x3d5934db	0.053028923
98	0xbeb28f23	-0.3487483
99	0xbdda6836	-0.10664408
100	0xbe281c39	-0.16417016
101	0x3d895753	0.06706109
102	0xbea44d8b	-0.3209041
103	0x3e1ce9b0	0.1532352
104	0x3ea135b1	0.31486276
105	0xbe6a7b2c	-0.22898549
106	0xbe4d106a	-0.20025793
107	0x3d930361	0.07178379
108	0x3dcf1be6	0.10112743
109	0xbde1075d	-0.109877326
110	0x3de9defc	0.11419484
111	0x3c2c342b	0.010510485
112	0x3c8d41f4	0.017243363
113	0xbe37142f	-0.17878793
114	0xbe07397d	-0.13205524
115	0xbdcf07c2	-0.101089016
116	0xbe60ede1	-0.21965744
117	0xbe8e1004	-0.27746594
118	0xbd94de1c	-0.072689265
119	0x3e65bd1d	0.22435422
120	0x3e20ccb7	0.15703093
121	0xbe243443	-0.16035561
122	0xbe255244	-0.16144663
123	0x3d22db70	0.039760053
124	0xbd9c74dd	-0.076394774
125	0x3b6fc604	0.0036586532
126	0x3ecee840	0.40411568
127	0xbd2dcd87	-0.042432334
128	0xbe7956a1	-0.24349453
129	0x3d2fa75a	0.04288421
130	0x3e1fb998	0.15598142
131	0xbe301e09	-0.17198958
132	0x3e7f98ce	0.24960634
133	0x3d97700c	0.07394418
134	0xbe02bf67	-0.12768327
135	0x3e0bfdf4	0.13671094
136	0xbd2f4579	-0.042790864
137	0x3e9cf06d	0.3065218
138	0x3d9eeee5	0.07760409
139	0xbe157d71	-0.14598633
140	0x3e3f31f0	0.18671393
141	0xbe3648c1	-0.17801191
142	0x3c21d184	0.009876613
143	0x3e0e2674	0.13881856
144	0xbe5c6cc1	-0.21525861
145	0xbe22573b	-0.15853588
146	0xbd4decee	-0.050274782
147	0x3dff1fe4	0.124572545
148	0xbd612ae9	-0.054972563
149	0x3e52de41	0.20592596
150	0x3cb797b2	0.022411201
151	0xbc92ff2f	-0.017943947
152	0x3d9221de	0.07135366
153	0xbe488aa3	-0.19584136
154	0x3df44354	0.11926904
155	0xbe875b21	-0.26436713
156	0x3e998711	0.2998586
157	0xbe57f13d	-0.21088119
158	0x3ee7eb5b	0.4529675
159	0xbd07c70e	-0.033148818
160	0xbe1e4ec2	-0.15459731
161	0xbdb87221	-0.09006143
162	0x3cec7781	0.028865578
163	0xbd83b389	-0.06430728
164	0xbe966f01	-0.29381564
165	0x3ec5a6a0	0.38603687
166	0x3eb9022e	0.36134475
167	0xbdaf8295	-0.085698284
168	0x3e6c704d	0.23089714
169	0x3dca065d	0.09864495
170	0xbeb28c07	-0.34872457
171	0xbe108afb	-0.14115517
172	0x3edb88f8	0.42877936
173	0x3e04985e	0.12948748
174	0x3e5bf8db	0.2148165
175	0xbc0fd939	-0.008779817
176	0xbd29e2ea	-0.041476168
177	0x3d161345	0.03663947
178	0xbe7d9aab	-0.24766032
179	0xbe6bd91d	-0.23032041
180	0xbe84602f	-0.25854632
181	0xbc3428f7	-0.010996095
182	0xbe004140	-0.12524891
183	0xbd51cbeb	-0.051219862
184	0x3ecba6f0	0.397758
185	0x3e1e640d	0.15467854
186	0x3ec4f4d7	0.38468048
187	0x3e11e06a	0.14245763
188	0x3e12594a	0.14291874
189	0xbe4863c5	-0.19569309
190	0xbeafc6a4	-0.34331238
191	0xbe847455	-0.25870004
192	0xbe265cf1	-0.16246392
193	0xbeb796dc	-0.35857284
194	0x3ca26d0e	0.019827392
195	0x3e85f89e	0.26166242
196	0x3c3d2367	0.011544085
197	0x3eb93bd2	0.36178452
198	0x3e7956c1	0.243495
199	0xbcb5a005	-0.02217103
200	0xbea22dfa	-0.31675702
201	0xbd1146d3	-0.035467934
202	0xbe859be7	-0.26095507
203	0x3eae889c	0.340886
204	0xbe12c490	-0.14332795
205	0xbe9bfe5f	-0.30467507
206	0x3ef9722c	0.4871992
207	0xbea64e5e	-0.32481664
208	0x3e00817c	0.12549394
209	0xbe6700bf	-0.22558878
210	0xbe22aee2	-0.15887025
211	0xbe1eaab4	-0.15494806
212	0xbd133fcc	-0.035949513
213	0xbe37050f	-0.17873023
214	0xbe4f0df9	-0.20220174
215	0x3e8d1a71	0.27559236
216	0xbe6f9556	-0.23396811
217	0x3e42c40c	0.19020098
218	0x3e7d8924	0.24759346
219	0x3e6596dd	0.22420831
220	0x3e39b036	0.18133625
221	0xbd35dcef	-0.04440015
222	0x3e800e8d	0.250111
223	0xbe7c421b	-0.24634592
224	0x3e317391	0.17329241
225	0xbe9908fc	-0.29889667
226	0x3ed51c53	0.41623172
227	0x3b08b1be	0.0020857896
228	0xbe2c14ac	-0.1680476
229	0x3e083dc6	0.13304815
230	0x3e513be9	0.2043301
231	0xbea562d4	-0.32301962
232	0x3e7aa4c4	0.24476916
233	0x3bfd95ac	0.0077387895
234	0xbe43db8a	-0.19126716
235	0xbe9f401b	-0.31103596
236	0xbe925823	-0.28582868
237	0xbe867ee1	-0.26268676
238	0xbe1ba258	-0.15198648
239	0x3d98d85a	0.07463141
240	0xbd7ef17c	-0.062242016
241	0x3c26d434	0.010182429
242	0xbe9f7d99	-0.3115051
243	0xbddd778c	-0.108138174
244	0x3e36fde4	0.17870289
245	0xbdb3aab1	-0.08772791
246	0xbce63495	-0.028101245
247	0x3e26ed7e	0.16301534
248	0xbcd901d8	-0.026490137
249	0xbdc0714e	-0.09396611
250	0x3e3ec997	0.18631588
251	0xbe51cfcf	-0.20489429
252	0xbe2d3060	-0.16912985
253	0x3d8d87d7	0.06910675
254	0x3e4ca1cf	0.199836
255	0x3c1d8939	0.009615236

linear2.weight f4 [3, 256]
0	0xbd93a271	-0.072087176
1	0x3cdf2531	0.027239414
2	0x3c3de357	0.011589847
3	0xbdeb7043	-0.114960216
4	0x3e86b560	0.26310253
5	0xbdbb6f80	-0.09152126
6	0x3c247ade	0.010039059
7	0xbf13d9ab	-0.5775401
8	0x3d323f95	0.043517668
9	0xbda4c66e	-0.0804566
10	0x3db4ca93	0.088277005
11	0xbbe43ec7	-0.0069654915
12	0xbe2bfe56	-0.1679624
13	0x3c6b2a70	0.01435338
14	0xbdbc0ba9	-0.091819115
15	0xbeb30a9f	-0.3496904
16	0x3d4a73a4	0.04942669
17	0x3d84fb43	0.06493237
18	0x3e5f097b	0.2178096
19	0x3e07a5c1	0.13246824
20	0xbe44f36b	-0.19233482
21	0xbe213739	-0.15743722
22	0xbed80d18	-0.4219749
23	0xbcfd05d8	-0.030886576
24	0xbcb07827	-0.021541668
25	0xb9aff900	-0.0003356412
26	0x3c28fff0	0.0103149265
27	0xbc27edd2	-0.010249572
28	0x3de0a38d	0.10968695
29	0xbe29e307	-0.1659051
30	0x3d720b25	0.05909266
31	0x3d1df906	0.038567565
32	0xbe7c9d63	-0.24669413
33	0xbdfee2fd	-0.12445638
34	0xbdb06683	-0.086133026
35	0x3ddc00a7	0.10742312
36	0xbdfab5c4	-0.122417
37	0xbce0ce68	-0.027442172
38	0xbdfc0ffb	-0.123077355
39	0xbdc5f04e	-0.09664975
40	0xbe1cd31e	-0.1531491
41	0xbe2b175e	-0.16708133
42	0xbdb34e82	-0.087552086
43	0xbde6fbda	-0.112785056
44	0x3da4afaa	0.08041318
45	0x3d39fc24	0.045406476
46	0xbe557dc1	-0.20848753
47	0xbe1b3f0e	-0.15160772
48	0x3dab8fc2	0.08377029
49	0xbd89295c	-0.06697342
50	0x3e43a3a4	0.19105393
51	0x3e545306	0.20734796
52	0x3e0d5bdc	0.13804573
53	0xbd7ccfc6	-0.061721586
54	0xbca6bfb4	-0.020355083
55	0xbe32ab8b	-0.17448251
56	0xbe51fb91	-0.20506121
57	0xbcfd8f91	-0.030952247
58	0x3be1c84c	0.0068903323
59	0x3e913409	0.28360012
60	0xbd96535f	-0.073401205
61	0xbd5331dd	-0.051561225
62	0x3daea7be	0.08528088
63	0xbd016bcc	-0.031596944
64	0x3dc0cc2e	0.09413944
65	0x3e2715c3	0.16316895
66	0xbd7300b2	-0.059326835
67	0x3d81af26	0.06332235
68	0x3d21047c	0.039310917
69	0x3e14b558	0.14522302
70	0xbd6df499	-0.058094595
71	0xbe965cdf	-0.2936773
72	0xbc5fe8ae	-0.013666315
73	0x3c922e3d	0.017844314
74	0xbe609e54	-0.21935397
75	0xbd2808a0	-0.04102385
76	0xbe4be8c0	-0.19913006
77	0x3d03000f	0.031982478
78	0x3edd1758	0.43181872
79	0xbdda717c	-0.10666177
80	0x3d577357	0.05260023
81	0x3e967a27	0.2939007
82	0x3bc1880c	0.0059061106
83	0xbe1d5111	-0.15362956
84	0xbe04a85f	-0.12954853
85	0xbe1db2df	-0.15400265
86	0xbb78142f	-0.0037853827
87	0x3cd907e2	0.026493017
88	0xbd8eec15	-0.06978623
89	0x3dd53f54	0.104124695
90	0xbd8b4d01	-0.06801797
91	0xbdf802c1	-0.121099
92	0xbdaafe6b	-0.083493076
93	0x3e9898cf	0.29804084
94	0x3d0a14d4	0.03371127
95	0x3d037900	0.032097816
96	0xbe07fbc8	-0.1327964
97	0xbe47aa82	-0.19498637
98	0xbe3aecb7	-0.18254362
99	0xbce9ad96	-0.028525155
100	0x3d0269ca	0.03183917
101	0xbe76634e	-0.24061319
102	0xbe0be15e	-0.1366019
103	0x3db5c10e	0.08874713
104	0x3dd98451	0.106209405
105	0xbd1f07c4	-0.038825765
106	0xbd433b99	-0.04766426
107	0xbd985013	-0.07437148
108	0x3e1f0120	0.15527773
109	0x3e06fb19	0.13181724
110	0xbcd426f7	-0.025897486
111	0x3cab3655	0.020899931
112	0x3e32e2c4	0.17469317
113	0x3d7cb08a	0.0616918
114	0xbcc9c4dc	-0.024630003
115	0x3d4413f0	0.047870576
116	0x3e2edf8d	0.17077465
117	0x3d1afb36	0.03783723
118	0x3e4d15ed	0.20027895
119	0x3d14ab4a	0.036296166
120	0xbc9e35d0	-0.01931277
121	0x3bb45c6c	0.0055041816
122	0x3d13dac6	0.03609731
123	0x3e804155	0.25049844
124	0xbdc6c1e9	-0.09704954
125	0xbe5f3b7b	-0.21800034
126	0xbe43e77b	-0.19131272
127	0x3d5aa1e2	0.05337704
128	0x3cb46f3d	0.022025699
129	0xbde1e0c9	-0.110292025
130	0xbc8519e5	-0.016247699
131	0xbd08dcba	-0.033413626
132	0xbd9d4eef	-0.07681071
133	0xbdf87351	-0.1213137
134	0x3da5c996	0.0809509
135	0x3e3511c1	0.17682554
136	0xbde68fcd	-0.112578966
137	0x3dc8eb45	0.09810499
138	0xbd5104f4	-0.051030114
139	0xbd8ab638	-0.06773037
140	0x3e28d7ed	0.16488619
141	0x3e9d649a	0.30740815
142	0x3e7e42cd	0.2483017
143	0xbdfffb65	-0.124991216
144	0x3ea6cc43	0.32577714
145	0xbe8f93ce	-0.28042454
146	0xbcad8536	-0.021181684
147	0x3e27cc44	0.16386515
148	0xbe8c5840	-0.2741108
149	0x3e184e39	0.1487359
150	0xbe0e1135	-0.13873751
151	0xbe1674c0	-0.14692974
152	0xbc5d9302	-0.013523819
153	0xbcf184fa	-0.029482353
154	0xbe3bf35f	-0.18354557
155	0x3d904e47	0.0704618
156	0x3e15a21a	0.14612618
157	0x3da9085e	0.08253549
158	0xbbc249ee	-0.0059292233
159	0xbe840ea4	-0.2579242
160	0x3e0b2e61	0.13591911
161	0x3e047a1c	0.12937206
162	0xbe20ae76	-0.15691552
163	0xbe1a5e90	-0.15075135
164	0x3e95e359	0.29275015
165	0x398b91c6	0.00026620756
166	0xbe1e6b81	-0.15470697
167	0xbe8c2bbe	-0.27377123
168	0xbe894155	-0.26807657
169	0xbf24bc17	-0.643495
170	0xbf00c8a9	-0.50306183
171	0x3e26198b	0.16220681
172	0x3dd49ea2	0.10381819
173	0x3bc3b12c	0.0059720483
174	0x3e1a8ef8	0.15093601
175	0x3d1151c2	0.03547836
176	0x3c24c5ec	0.010056954
177	0xbe50c0a1	-0.20385982
178	0x39b2f228	0.00034131226
179	0x3d586303	0.0528288
180	0xbcfc9313	-0.03083185
181	0x3c7a3464	0.01527128
182	0xbe450df0	-0.19243598
183	0xbb08ec13	-0.0020892664
184	0xbe07d950	-0.13266492
185	0x3e839ddf	0.25706384
186	0x3dc6c85b	0.097061835
187	0x3dcf986f	0.10136496
188	0xbe55f855	-0.20895512
189	0xbeae62cf	-0.3405976
190	0xbd8fdb95	-0.07024304
191	0xbe98793c	-0.29779994
192	0xbecb0134	-0.39649355
193	0x3d8e70d9	0.06955118
194	0x38753d5c	5.8469697e-05
195	0x3df08959	0.11744947
196	0xbc00f1e5	-0.007870172
197	0x3e96f77f	0.294857
198	0xbda5408c	-0.08068952
199	0x3d0c66c6	0.0342777
200	0x3e5fed08	0.21867764
201	0xbd9dce8d	-0.07705412
202	0xbe2fb349	-0.17158236
203	0x3e0ed8d2	0.13949898
204	0x3cf51265	0.029915998
205	0x3e1c3842	0.15255836
206	0xbda2a151	-0.07940925
207	0x3c97f24a	0.01854815
208	0xbd0ea278	-0.03482291
209	0xbcdcd8d9	-0.02695887
210	0x3e3010ef	0.1719396
211	0xbe8ae7ae	-0.27129883
212	0x3e44966d	0.19198008
213	0x3e297929	0.16550125
214	0xbbd4175d	-0.0064725117
215	0xbd21ea34	-0.039529994
216	0x3ca4921c	0.020089202
217	0x3e2a2696	0.16616282
218	0x3dc6a6b8	0.09699768
219	0xbdc702df	-0.097173445
220	0xbda2362d	-0.079204895
221	0x3f02dbf3	0.51116866
222	0xbe325eb0	-0.17418933
223	0x3e229769	0.15878071
224	0xbd69b961	-0.057061557
225	0xbe530dfe	-0.20610806
226	0xbdf3975f	-0.11894106
227	0x3e333401	0.17500307
228	0x3d89add5	0.06722609
229	0xbc6873fd	-0.01418781
230	0xbdfe1cc6	-0.12407832
231	0x3db9c707	0.090711646
232	0xbe03b917	-0.12863575
233	0x3c06ab5b	0.008219565
234	0x3dee31c8	0.11630589
235	0xbcc33bb6	-0.023832183
236	0xbe40ea81	-0.18839456
237	0xbd2602b6	-0.04052993
238	0xbe37caf0	-0.17948508
239	0xbd8ecb6d	-0.06972394
240	0xbd11f067	-0.035629656
241	0xbe804f44	-0.25060475
242	0xbe6c9454	-0.23103458
243	0xbeb5c016	-0.35498112
244	0x3da98f25	0.08279256
245	0x3dcca21d	0.09991858
246	0xbe6ed4c1	-0.23323347
247	0xbe803880	-0.25043106
248	0xbdc9907b	-0.098420106
249	0x3d45e229	0.048311386
250	0xbe3f3835	-0.18673785
251	0x3e04ad4a	0.1295673
252	0x3d084cc2	0.033276327
253	0x3d2f34ad	0.042774845
254	0xbd77811c	-0.060425863
255	0xbb6d3a7b	-0.0036198187

linear2.bias f4 [3]
0	0xbcb11997	-0.021618648
1	0xbe514bdf	-0.20439099
2	0xbda175fc	-0.07883832
